{"backend": "tensorflow", "config": {"name": "model_2", "layers": [{"name": "create_gen_input", "config": {"name": "create_gen_input", "dtype": "float32", "batch_input_shape": [null, 224, 224, 3], "sparse": false}, "class_name": "InputLayer", "inbound_nodes": []}, {"name": "create_gen_conv2d_1", "config": {"activation": "linear", "trainable": true, "filters": 64, "bias_initializer": {"config": {}, "class_name": "Zeros"}, "kernel_regularizer": null, "padding": "same", "dilation_rate": [1, 1], "use_bias": true, "kernel_initializer": {"config": {"scale": 1.0, "mode": "fan_avg", "distribution": "uniform", "seed": null}, "class_name": "VarianceScaling"}, "activity_regularizer": null, "bias_constraint": null, "name": "create_gen_conv2d_1", "data_format": "channels_last", "kernel_constraint": null, "kernel_size": [9, 9], "strides": [1, 1], "bias_regularizer": null}, "class_name": "Conv2D", "inbound_nodes": [[["create_gen_input", 0, 0, {}]]]}, {"name": "create_gen_relu_1", "config": {"trainable": true, "name": "create_gen_relu_1", "activation": "relu"}, "class_name": "Activation", "inbound_nodes": [[["create_gen_conv2d_1", 0, 0, {}]]]}, {"name": "conv2d_9", "config": {"activation": "linear", "trainable": true, "filters": 64, "bias_initializer": {"config": {}, "class_name": "Zeros"}, "kernel_regularizer": null, "padding": "same", "dilation_rate": [1, 1], "use_bias": true, "kernel_initializer": {"config": {"scale": 1.0, "mode": "fan_avg", "distribution": "uniform", "seed": null}, "class_name": "VarianceScaling"}, "activity_regularizer": null, "bias_constraint": null, "name": "conv2d_9", "data_format": "channels_last", "kernel_constraint": null, "kernel_size": [3, 3], "strides": [1, 1], "bias_regularizer": null}, "class_name": "Conv2D", "inbound_nodes": [[["create_gen_relu_1", 0, 0, {}]]]}, {"name": "activation_1", "config": {"trainable": true, "name": "activation_1", "activation": "relu"}, "class_name": "Activation", "inbound_nodes": [[["conv2d_9", 0, 0, {}]]]}, {"name": "batch_normalization_8", "config": {"epsilon": 0.001, "moving_mean_initializer": {"config": {}, "class_name": "Zeros"}, "trainable": true, "beta_constraint": null, "gamma_constraint": null, "gamma_initializer": {"config": {}, "class_name": "Ones"}, "beta_initializer": {"config": {}, "class_name": "Zeros"}, "momentum": 0.8, "moving_variance_initializer": {"config": {}, "class_name": "Ones"}, "beta_regularizer": null, "name": "batch_normalization_8", "axis": -1, "scale": true, "gamma_regularizer": null, "center": true}, "class_name": "BatchNormalization", "inbound_nodes": [[["activation_1", 0, 0, {}]]]}, {"name": "conv2d_10", "config": {"activation": "linear", "trainable": true, "filters": 64, "bias_initializer": {"config": {}, "class_name": "Zeros"}, "kernel_regularizer": null, "padding": "same", "dilation_rate": [1, 1], "use_bias": true, "kernel_initializer": {"config": {"scale": 1.0, "mode": "fan_avg", "distribution": "uniform", "seed": null}, "class_name": "VarianceScaling"}, "activity_regularizer": null, "bias_constraint": null, "name": "conv2d_10", "data_format": "channels_last", "kernel_constraint": null, "kernel_size": [3, 3], "strides": [1, 1], "bias_regularizer": null}, "class_name": "Conv2D", "inbound_nodes": [[["batch_normalization_8", 0, 0, {}]]]}, {"name": "batch_normalization_9", "config": {"epsilon": 0.001, "moving_mean_initializer": {"config": {}, "class_name": "Zeros"}, "trainable": true, "beta_constraint": null, "gamma_constraint": null, "gamma_initializer": {"config": {}, "class_name": "Ones"}, "beta_initializer": {"config": {}, "class_name": "Zeros"}, "momentum": 0.8, "moving_variance_initializer": {"config": {}, "class_name": "Ones"}, "beta_regularizer": null, "name": "batch_normalization_9", "axis": -1, "scale": true, "gamma_regularizer": null, "center": true}, "class_name": "BatchNormalization", "inbound_nodes": [[["conv2d_10", 0, 0, {}]]]}, {"name": "add_1", "config": {"trainable": true, "name": "add_1"}, "class_name": "Add", "inbound_nodes": [[["batch_normalization_9", 0, 0, {}], ["create_gen_relu_1", 0, 0, {}]]]}, {"name": "conv2d_11", "config": {"activation": "linear", "trainable": true, "filters": 64, "bias_initializer": {"config": {}, "class_name": "Zeros"}, "kernel_regularizer": null, "padding": "same", "dilation_rate": [1, 1], "use_bias": true, "kernel_initializer": {"config": {"scale": 1.0, "mode": "fan_avg", "distribution": "uniform", "seed": null}, "class_name": "VarianceScaling"}, "activity_regularizer": null, "bias_constraint": null, "name": "conv2d_11", "data_format": "channels_last", "kernel_constraint": null, "kernel_size": [3, 3], "strides": [1, 1], "bias_regularizer": null}, "class_name": "Conv2D", "inbound_nodes": [[["add_1", 0, 0, {}]]]}, {"name": "activation_2", "config": {"trainable": true, "name": "activation_2", "activation": "relu"}, "class_name": "Activation", "inbound_nodes": [[["conv2d_11", 0, 0, {}]]]}, {"name": "batch_normalization_10", "config": {"epsilon": 0.001, "moving_mean_initializer": {"config": {}, "class_name": "Zeros"}, "trainable": true, "beta_constraint": null, "gamma_constraint": null, "gamma_initializer": {"config": {}, "class_name": "Ones"}, "beta_initializer": {"config": {}, "class_name": "Zeros"}, "momentum": 0.8, "moving_variance_initializer": {"config": {}, "class_name": "Ones"}, "beta_regularizer": null, "name": "batch_normalization_10", "axis": -1, "scale": true, "gamma_regularizer": null, "center": true}, "class_name": "BatchNormalization", "inbound_nodes": [[["activation_2", 0, 0, {}]]]}, {"name": "conv2d_12", "config": {"activation": "linear", "trainable": true, "filters": 64, "bias_initializer": {"config": {}, "class_name": "Zeros"}, "kernel_regularizer": null, "padding": "same", "dilation_rate": [1, 1], "use_bias": true, "kernel_initializer": {"config": {"scale": 1.0, "mode": "fan_avg", "distribution": "uniform", "seed": null}, "class_name": "VarianceScaling"}, "activity_regularizer": null, "bias_constraint": null, "name": "conv2d_12", "data_format": "channels_last", "kernel_constraint": null, "kernel_size": [3, 3], "strides": [1, 1], "bias_regularizer": null}, "class_name": "Conv2D", "inbound_nodes": [[["batch_normalization_10", 0, 0, {}]]]}, {"name": "batch_normalization_11", "config": {"epsilon": 0.001, "moving_mean_initializer": {"config": {}, "class_name": "Zeros"}, "trainable": true, "beta_constraint": null, "gamma_constraint": null, "gamma_initializer": {"config": {}, "class_name": "Ones"}, "beta_initializer": {"config": {}, "class_name": "Zeros"}, "momentum": 0.8, "moving_variance_initializer": {"config": {}, "class_name": "Ones"}, "beta_regularizer": null, "name": "batch_normalization_11", "axis": -1, "scale": true, "gamma_regularizer": null, "center": true}, "class_name": "BatchNormalization", "inbound_nodes": [[["conv2d_12", 0, 0, {}]]]}, {"name": "add_2", "config": {"trainable": true, "name": "add_2"}, "class_name": "Add", "inbound_nodes": [[["batch_normalization_11", 0, 0, {}], ["add_1", 0, 0, {}]]]}, {"name": "conv2d_13", "config": {"activation": "linear", "trainable": true, "filters": 64, "bias_initializer": {"config": {}, "class_name": "Zeros"}, "kernel_regularizer": null, "padding": "same", "dilation_rate": [1, 1], "use_bias": true, "kernel_initializer": {"config": {"scale": 1.0, "mode": "fan_avg", "distribution": "uniform", "seed": null}, "class_name": "VarianceScaling"}, "activity_regularizer": null, "bias_constraint": null, "name": "conv2d_13", "data_format": "channels_last", "kernel_constraint": null, "kernel_size": [3, 3], "strides": [1, 1], "bias_regularizer": null}, "class_name": "Conv2D", "inbound_nodes": [[["add_2", 0, 0, {}]]]}, {"name": "activation_3", "config": {"trainable": true, "name": "activation_3", "activation": "relu"}, "class_name": "Activation", "inbound_nodes": [[["conv2d_13", 0, 0, {}]]]}, {"name": "batch_normalization_12", "config": {"epsilon": 0.001, "moving_mean_initializer": {"config": {}, "class_name": "Zeros"}, "trainable": true, "beta_constraint": null, "gamma_constraint": null, "gamma_initializer": {"config": {}, "class_name": "Ones"}, "beta_initializer": {"config": {}, "class_name": "Zeros"}, "momentum": 0.8, "moving_variance_initializer": {"config": {}, "class_name": "Ones"}, "beta_regularizer": null, "name": "batch_normalization_12", "axis": -1, "scale": true, "gamma_regularizer": null, "center": true}, "class_name": "BatchNormalization", "inbound_nodes": [[["activation_3", 0, 0, {}]]]}, {"name": "conv2d_14", "config": {"activation": "linear", "trainable": true, "filters": 64, "bias_initializer": {"config": {}, "class_name": "Zeros"}, "kernel_regularizer": null, "padding": "same", "dilation_rate": [1, 1], "use_bias": true, "kernel_initializer": {"config": {"scale": 1.0, "mode": "fan_avg", "distribution": "uniform", "seed": null}, "class_name": "VarianceScaling"}, "activity_regularizer": null, "bias_constraint": null, "name": "conv2d_14", "data_format": "channels_last", "kernel_constraint": null, "kernel_size": [3, 3], "strides": [1, 1], "bias_regularizer": null}, "class_name": "Conv2D", "inbound_nodes": [[["batch_normalization_12", 0, 0, {}]]]}, {"name": "batch_normalization_13", "config": {"epsilon": 0.001, "moving_mean_initializer": {"config": {}, "class_name": "Zeros"}, "trainable": true, "beta_constraint": null, "gamma_constraint": null, "gamma_initializer": {"config": {}, "class_name": "Ones"}, "beta_initializer": {"config": {}, "class_name": "Zeros"}, "momentum": 0.8, "moving_variance_initializer": {"config": {}, "class_name": "Ones"}, "beta_regularizer": null, "name": "batch_normalization_13", "axis": -1, "scale": true, "gamma_regularizer": null, "center": true}, "class_name": "BatchNormalization", "inbound_nodes": [[["conv2d_14", 0, 0, {}]]]}, {"name": "add_3", "config": {"trainable": true, "name": "add_3"}, "class_name": "Add", "inbound_nodes": [[["batch_normalization_13", 0, 0, {}], ["add_2", 0, 0, {}]]]}, {"name": "conv2d_15", "config": {"activation": "linear", "trainable": true, "filters": 64, "bias_initializer": {"config": {}, "class_name": "Zeros"}, "kernel_regularizer": null, "padding": "same", "dilation_rate": [1, 1], "use_bias": true, "kernel_initializer": {"config": {"scale": 1.0, "mode": "fan_avg", "distribution": "uniform", "seed": null}, "class_name": "VarianceScaling"}, "activity_regularizer": null, "bias_constraint": null, "name": "conv2d_15", "data_format": "channels_last", "kernel_constraint": null, "kernel_size": [3, 3], "strides": [1, 1], "bias_regularizer": null}, "class_name": "Conv2D", "inbound_nodes": [[["add_3", 0, 0, {}]]]}, {"name": "activation_4", "config": {"trainable": true, "name": "activation_4", "activation": "relu"}, "class_name": "Activation", "inbound_nodes": [[["conv2d_15", 0, 0, {}]]]}, {"name": "batch_normalization_14", "config": {"epsilon": 0.001, "moving_mean_initializer": {"config": {}, "class_name": "Zeros"}, "trainable": true, "beta_constraint": null, "gamma_constraint": null, "gamma_initializer": {"config": {}, "class_name": "Ones"}, "beta_initializer": {"config": {}, "class_name": "Zeros"}, "momentum": 0.8, "moving_variance_initializer": {"config": {}, "class_name": "Ones"}, "beta_regularizer": null, "name": "batch_normalization_14", "axis": -1, "scale": true, "gamma_regularizer": null, "center": true}, "class_name": "BatchNormalization", "inbound_nodes": [[["activation_4", 0, 0, {}]]]}, {"name": "conv2d_16", "config": {"activation": "linear", "trainable": true, "filters": 64, "bias_initializer": {"config": {}, "class_name": "Zeros"}, "kernel_regularizer": null, "padding": "same", "dilation_rate": [1, 1], "use_bias": true, "kernel_initializer": {"config": {"scale": 1.0, "mode": "fan_avg", "distribution": "uniform", "seed": null}, "class_name": "VarianceScaling"}, "activity_regularizer": null, "bias_constraint": null, "name": "conv2d_16", "data_format": "channels_last", "kernel_constraint": null, "kernel_size": [3, 3], "strides": [1, 1], "bias_regularizer": null}, "class_name": "Conv2D", "inbound_nodes": [[["batch_normalization_14", 0, 0, {}]]]}, {"name": "batch_normalization_15", "config": {"epsilon": 0.001, "moving_mean_initializer": {"config": {}, "class_name": "Zeros"}, "trainable": true, "beta_constraint": null, "gamma_constraint": null, "gamma_initializer": {"config": {}, "class_name": "Ones"}, "beta_initializer": {"config": {}, "class_name": "Zeros"}, "momentum": 0.8, "moving_variance_initializer": {"config": {}, "class_name": "Ones"}, "beta_regularizer": null, "name": "batch_normalization_15", "axis": -1, "scale": true, "gamma_regularizer": null, "center": true}, "class_name": "BatchNormalization", "inbound_nodes": [[["conv2d_16", 0, 0, {}]]]}, {"name": "add_4", "config": {"trainable": true, "name": "add_4"}, "class_name": "Add", "inbound_nodes": [[["batch_normalization_15", 0, 0, {}], ["add_3", 0, 0, {}]]]}, {"name": "conv2d_17", "config": {"activation": "linear", "trainable": true, "filters": 64, "bias_initializer": {"config": {}, "class_name": "Zeros"}, "kernel_regularizer": null, "padding": "same", "dilation_rate": [1, 1], "use_bias": true, "kernel_initializer": {"config": {"scale": 1.0, "mode": "fan_avg", "distribution": "uniform", "seed": null}, "class_name": "VarianceScaling"}, "activity_regularizer": null, "bias_constraint": null, "name": "conv2d_17", "data_format": "channels_last", "kernel_constraint": null, "kernel_size": [3, 3], "strides": [1, 1], "bias_regularizer": null}, "class_name": "Conv2D", "inbound_nodes": [[["add_4", 0, 0, {}]]]}, {"name": "activation_5", "config": {"trainable": true, "name": "activation_5", "activation": "relu"}, "class_name": "Activation", "inbound_nodes": [[["conv2d_17", 0, 0, {}]]]}, {"name": "batch_normalization_16", "config": {"epsilon": 0.001, "moving_mean_initializer": {"config": {}, "class_name": "Zeros"}, "trainable": true, "beta_constraint": null, "gamma_constraint": null, "gamma_initializer": {"config": {}, "class_name": "Ones"}, "beta_initializer": {"config": {}, "class_name": "Zeros"}, "momentum": 0.8, "moving_variance_initializer": {"config": {}, "class_name": "Ones"}, "beta_regularizer": null, "name": "batch_normalization_16", "axis": -1, "scale": true, "gamma_regularizer": null, "center": true}, "class_name": "BatchNormalization", "inbound_nodes": [[["activation_5", 0, 0, {}]]]}, {"name": "conv2d_18", "config": {"activation": "linear", "trainable": true, "filters": 64, "bias_initializer": {"config": {}, "class_name": "Zeros"}, "kernel_regularizer": null, "padding": "same", "dilation_rate": [1, 1], "use_bias": true, "kernel_initializer": {"config": {"scale": 1.0, "mode": "fan_avg", "distribution": "uniform", "seed": null}, "class_name": "VarianceScaling"}, "activity_regularizer": null, "bias_constraint": null, "name": "conv2d_18", "data_format": "channels_last", "kernel_constraint": null, "kernel_size": [3, 3], "strides": [1, 1], "bias_regularizer": null}, "class_name": "Conv2D", "inbound_nodes": [[["batch_normalization_16", 0, 0, {}]]]}, {"name": "batch_normalization_17", "config": {"epsilon": 0.001, "moving_mean_initializer": {"config": {}, "class_name": "Zeros"}, "trainable": true, "beta_constraint": null, "gamma_constraint": null, "gamma_initializer": {"config": {}, "class_name": "Ones"}, "beta_initializer": {"config": {}, "class_name": "Zeros"}, "momentum": 0.8, "moving_variance_initializer": {"config": {}, "class_name": "Ones"}, "beta_regularizer": null, "name": "batch_normalization_17", "axis": -1, "scale": true, "gamma_regularizer": null, "center": true}, "class_name": "BatchNormalization", "inbound_nodes": [[["conv2d_18", 0, 0, {}]]]}, {"name": "add_5", "config": {"trainable": true, "name": "add_5"}, "class_name": "Add", "inbound_nodes": [[["batch_normalization_17", 0, 0, {}], ["add_4", 0, 0, {}]]]}, {"name": "conv2d_19", "config": {"activation": "linear", "trainable": true, "filters": 64, "bias_initializer": {"config": {}, "class_name": "Zeros"}, "kernel_regularizer": null, "padding": "same", "dilation_rate": [1, 1], "use_bias": true, "kernel_initializer": {"config": {"scale": 1.0, "mode": "fan_avg", "distribution": "uniform", "seed": null}, "class_name": "VarianceScaling"}, "activity_regularizer": null, "bias_constraint": null, "name": "conv2d_19", "data_format": "channels_last", "kernel_constraint": null, "kernel_size": [3, 3], "strides": [1, 1], "bias_regularizer": null}, "class_name": "Conv2D", "inbound_nodes": [[["add_5", 0, 0, {}]]]}, {"name": "activation_6", "config": {"trainable": true, "name": "activation_6", "activation": "relu"}, "class_name": "Activation", "inbound_nodes": [[["conv2d_19", 0, 0, {}]]]}, {"name": "batch_normalization_18", "config": {"epsilon": 0.001, "moving_mean_initializer": {"config": {}, "class_name": "Zeros"}, "trainable": true, "beta_constraint": null, "gamma_constraint": null, "gamma_initializer": {"config": {}, "class_name": "Ones"}, "beta_initializer": {"config": {}, "class_name": "Zeros"}, "momentum": 0.8, "moving_variance_initializer": {"config": {}, "class_name": "Ones"}, "beta_regularizer": null, "name": "batch_normalization_18", "axis": -1, "scale": true, "gamma_regularizer": null, "center": true}, "class_name": "BatchNormalization", "inbound_nodes": [[["activation_6", 0, 0, {}]]]}, {"name": "conv2d_20", "config": {"activation": "linear", "trainable": true, "filters": 64, "bias_initializer": {"config": {}, "class_name": "Zeros"}, "kernel_regularizer": null, "padding": "same", "dilation_rate": [1, 1], "use_bias": true, "kernel_initializer": {"config": {"scale": 1.0, "mode": "fan_avg", "distribution": "uniform", "seed": null}, "class_name": "VarianceScaling"}, "activity_regularizer": null, "bias_constraint": null, "name": "conv2d_20", "data_format": "channels_last", "kernel_constraint": null, "kernel_size": [3, 3], "strides": [1, 1], "bias_regularizer": null}, "class_name": "Conv2D", "inbound_nodes": [[["batch_normalization_18", 0, 0, {}]]]}, {"name": "batch_normalization_19", "config": {"epsilon": 0.001, "moving_mean_initializer": {"config": {}, "class_name": "Zeros"}, "trainable": true, "beta_constraint": null, "gamma_constraint": null, "gamma_initializer": {"config": {}, "class_name": "Ones"}, "beta_initializer": {"config": {}, "class_name": "Zeros"}, "momentum": 0.8, "moving_variance_initializer": {"config": {}, "class_name": "Ones"}, "beta_regularizer": null, "name": "batch_normalization_19", "axis": -1, "scale": true, "gamma_regularizer": null, "center": true}, "class_name": "BatchNormalization", "inbound_nodes": [[["conv2d_20", 0, 0, {}]]]}, {"name": "add_6", "config": {"trainable": true, "name": "add_6"}, "class_name": "Add", "inbound_nodes": [[["batch_normalization_19", 0, 0, {}], ["add_5", 0, 0, {}]]]}, {"name": "conv2d_21", "config": {"activation": "linear", "trainable": true, "filters": 64, "bias_initializer": {"config": {}, "class_name": "Zeros"}, "kernel_regularizer": null, "padding": "same", "dilation_rate": [1, 1], "use_bias": true, "kernel_initializer": {"config": {"scale": 1.0, "mode": "fan_avg", "distribution": "uniform", "seed": null}, "class_name": "VarianceScaling"}, "activity_regularizer": null, "bias_constraint": null, "name": "conv2d_21", "data_format": "channels_last", "kernel_constraint": null, "kernel_size": [3, 3], "strides": [1, 1], "bias_regularizer": null}, "class_name": "Conv2D", "inbound_nodes": [[["add_6", 0, 0, {}]]]}, {"name": "activation_7", "config": {"trainable": true, "name": "activation_7", "activation": "relu"}, "class_name": "Activation", "inbound_nodes": [[["conv2d_21", 0, 0, {}]]]}, {"name": "batch_normalization_20", "config": {"epsilon": 0.001, "moving_mean_initializer": {"config": {}, "class_name": "Zeros"}, "trainable": true, "beta_constraint": null, "gamma_constraint": null, "gamma_initializer": {"config": {}, "class_name": "Ones"}, "beta_initializer": {"config": {}, "class_name": "Zeros"}, "momentum": 0.8, "moving_variance_initializer": {"config": {}, "class_name": "Ones"}, "beta_regularizer": null, "name": "batch_normalization_20", "axis": -1, "scale": true, "gamma_regularizer": null, "center": true}, "class_name": "BatchNormalization", "inbound_nodes": [[["activation_7", 0, 0, {}]]]}, {"name": "conv2d_22", "config": {"activation": "linear", "trainable": true, "filters": 64, "bias_initializer": {"config": {}, "class_name": "Zeros"}, "kernel_regularizer": null, "padding": "same", "dilation_rate": [1, 1], "use_bias": true, "kernel_initializer": {"config": {"scale": 1.0, "mode": "fan_avg", "distribution": "uniform", "seed": null}, "class_name": "VarianceScaling"}, "activity_regularizer": null, "bias_constraint": null, "name": "conv2d_22", "data_format": "channels_last", "kernel_constraint": null, "kernel_size": [3, 3], "strides": [1, 1], "bias_regularizer": null}, "class_name": "Conv2D", "inbound_nodes": [[["batch_normalization_20", 0, 0, {}]]]}, {"name": "batch_normalization_21", "config": {"epsilon": 0.001, "moving_mean_initializer": {"config": {}, "class_name": "Zeros"}, "trainable": true, "beta_constraint": null, "gamma_constraint": null, "gamma_initializer": {"config": {}, "class_name": "Ones"}, "beta_initializer": {"config": {}, "class_name": "Zeros"}, "momentum": 0.8, "moving_variance_initializer": {"config": {}, "class_name": "Ones"}, "beta_regularizer": null, "name": "batch_normalization_21", "axis": -1, "scale": true, "gamma_regularizer": null, "center": true}, "class_name": "BatchNormalization", "inbound_nodes": [[["conv2d_22", 0, 0, {}]]]}, {"name": "add_7", "config": {"trainable": true, "name": "add_7"}, "class_name": "Add", "inbound_nodes": [[["batch_normalization_21", 0, 0, {}], ["add_6", 0, 0, {}]]]}, {"name": "conv2d_23", "config": {"activation": "linear", "trainable": true, "filters": 64, "bias_initializer": {"config": {}, "class_name": "Zeros"}, "kernel_regularizer": null, "padding": "same", "dilation_rate": [1, 1], "use_bias": true, "kernel_initializer": {"config": {"scale": 1.0, "mode": "fan_avg", "distribution": "uniform", "seed": null}, "class_name": "VarianceScaling"}, "activity_regularizer": null, "bias_constraint": null, "name": "conv2d_23", "data_format": "channels_last", "kernel_constraint": null, "kernel_size": [3, 3], "strides": [1, 1], "bias_regularizer": null}, "class_name": "Conv2D", "inbound_nodes": [[["add_7", 0, 0, {}]]]}, {"name": "activation_8", "config": {"trainable": true, "name": "activation_8", "activation": "relu"}, "class_name": "Activation", "inbound_nodes": [[["conv2d_23", 0, 0, {}]]]}, {"name": "batch_normalization_22", "config": {"epsilon": 0.001, "moving_mean_initializer": {"config": {}, "class_name": "Zeros"}, "trainable": true, "beta_constraint": null, "gamma_constraint": null, "gamma_initializer": {"config": {}, "class_name": "Ones"}, "beta_initializer": {"config": {}, "class_name": "Zeros"}, "momentum": 0.8, "moving_variance_initializer": {"config": {}, "class_name": "Ones"}, "beta_regularizer": null, "name": "batch_normalization_22", "axis": -1, "scale": true, "gamma_regularizer": null, "center": true}, "class_name": "BatchNormalization", "inbound_nodes": [[["activation_8", 0, 0, {}]]]}, {"name": "conv2d_24", "config": {"activation": "linear", "trainable": true, "filters": 64, "bias_initializer": {"config": {}, "class_name": "Zeros"}, "kernel_regularizer": null, "padding": "same", "dilation_rate": [1, 1], "use_bias": true, "kernel_initializer": {"config": {"scale": 1.0, "mode": "fan_avg", "distribution": "uniform", "seed": null}, "class_name": "VarianceScaling"}, "activity_regularizer": null, "bias_constraint": null, "name": "conv2d_24", "data_format": "channels_last", "kernel_constraint": null, "kernel_size": [3, 3], "strides": [1, 1], "bias_regularizer": null}, "class_name": "Conv2D", "inbound_nodes": [[["batch_normalization_22", 0, 0, {}]]]}, {"name": "batch_normalization_23", "config": {"epsilon": 0.001, "moving_mean_initializer": {"config": {}, "class_name": "Zeros"}, "trainable": true, "beta_constraint": null, "gamma_constraint": null, "gamma_initializer": {"config": {}, "class_name": "Ones"}, "beta_initializer": {"config": {}, "class_name": "Zeros"}, "momentum": 0.8, "moving_variance_initializer": {"config": {}, "class_name": "Ones"}, "beta_regularizer": null, "name": "batch_normalization_23", "axis": -1, "scale": true, "gamma_regularizer": null, "center": true}, "class_name": "BatchNormalization", "inbound_nodes": [[["conv2d_24", 0, 0, {}]]]}, {"name": "add_8", "config": {"trainable": true, "name": "add_8"}, "class_name": "Add", "inbound_nodes": [[["batch_normalization_23", 0, 0, {}], ["add_7", 0, 0, {}]]]}, {"name": "conv2d_25", "config": {"activation": "linear", "trainable": true, "filters": 64, "bias_initializer": {"config": {}, "class_name": "Zeros"}, "kernel_regularizer": null, "padding": "same", "dilation_rate": [1, 1], "use_bias": true, "kernel_initializer": {"config": {"scale": 1.0, "mode": "fan_avg", "distribution": "uniform", "seed": null}, "class_name": "VarianceScaling"}, "activity_regularizer": null, "bias_constraint": null, "name": "conv2d_25", "data_format": "channels_last", "kernel_constraint": null, "kernel_size": [3, 3], "strides": [1, 1], "bias_regularizer": null}, "class_name": "Conv2D", "inbound_nodes": [[["add_8", 0, 0, {}]]]}, {"name": "activation_9", "config": {"trainable": true, "name": "activation_9", "activation": "relu"}, "class_name": "Activation", "inbound_nodes": [[["conv2d_25", 0, 0, {}]]]}, {"name": "batch_normalization_24", "config": {"epsilon": 0.001, "moving_mean_initializer": {"config": {}, "class_name": "Zeros"}, "trainable": true, "beta_constraint": null, "gamma_constraint": null, "gamma_initializer": {"config": {}, "class_name": "Ones"}, "beta_initializer": {"config": {}, "class_name": "Zeros"}, "momentum": 0.8, "moving_variance_initializer": {"config": {}, "class_name": "Ones"}, "beta_regularizer": null, "name": "batch_normalization_24", "axis": -1, "scale": true, "gamma_regularizer": null, "center": true}, "class_name": "BatchNormalization", "inbound_nodes": [[["activation_9", 0, 0, {}]]]}, {"name": "conv2d_26", "config": {"activation": "linear", "trainable": true, "filters": 64, "bias_initializer": {"config": {}, "class_name": "Zeros"}, "kernel_regularizer": null, "padding": "same", "dilation_rate": [1, 1], "use_bias": true, "kernel_initializer": {"config": {"scale": 1.0, "mode": "fan_avg", "distribution": "uniform", "seed": null}, "class_name": "VarianceScaling"}, "activity_regularizer": null, "bias_constraint": null, "name": "conv2d_26", "data_format": "channels_last", "kernel_constraint": null, "kernel_size": [3, 3], "strides": [1, 1], "bias_regularizer": null}, "class_name": "Conv2D", "inbound_nodes": [[["batch_normalization_24", 0, 0, {}]]]}, {"name": "batch_normalization_25", "config": {"epsilon": 0.001, "moving_mean_initializer": {"config": {}, "class_name": "Zeros"}, "trainable": true, "beta_constraint": null, "gamma_constraint": null, "gamma_initializer": {"config": {}, "class_name": "Ones"}, "beta_initializer": {"config": {}, "class_name": "Zeros"}, "momentum": 0.8, "moving_variance_initializer": {"config": {}, "class_name": "Ones"}, "beta_regularizer": null, "name": "batch_normalization_25", "axis": -1, "scale": true, "gamma_regularizer": null, "center": true}, "class_name": "BatchNormalization", "inbound_nodes": [[["conv2d_26", 0, 0, {}]]]}, {"name": "add_9", "config": {"trainable": true, "name": "add_9"}, "class_name": "Add", "inbound_nodes": [[["batch_normalization_25", 0, 0, {}], ["add_8", 0, 0, {}]]]}, {"name": "conv2d_27", "config": {"activation": "linear", "trainable": true, "filters": 64, "bias_initializer": {"config": {}, "class_name": "Zeros"}, "kernel_regularizer": null, "padding": "same", "dilation_rate": [1, 1], "use_bias": true, "kernel_initializer": {"config": {"scale": 1.0, "mode": "fan_avg", "distribution": "uniform", "seed": null}, "class_name": "VarianceScaling"}, "activity_regularizer": null, "bias_constraint": null, "name": "conv2d_27", "data_format": "channels_last", "kernel_constraint": null, "kernel_size": [3, 3], "strides": [1, 1], "bias_regularizer": null}, "class_name": "Conv2D", "inbound_nodes": [[["add_9", 0, 0, {}]]]}, {"name": "activation_10", "config": {"trainable": true, "name": "activation_10", "activation": "relu"}, "class_name": "Activation", "inbound_nodes": [[["conv2d_27", 0, 0, {}]]]}, {"name": "batch_normalization_26", "config": {"epsilon": 0.001, "moving_mean_initializer": {"config": {}, "class_name": "Zeros"}, "trainable": true, "beta_constraint": null, "gamma_constraint": null, "gamma_initializer": {"config": {}, "class_name": "Ones"}, "beta_initializer": {"config": {}, "class_name": "Zeros"}, "momentum": 0.8, "moving_variance_initializer": {"config": {}, "class_name": "Ones"}, "beta_regularizer": null, "name": "batch_normalization_26", "axis": -1, "scale": true, "gamma_regularizer": null, "center": true}, "class_name": "BatchNormalization", "inbound_nodes": [[["activation_10", 0, 0, {}]]]}, {"name": "conv2d_28", "config": {"activation": "linear", "trainable": true, "filters": 64, "bias_initializer": {"config": {}, "class_name": "Zeros"}, "kernel_regularizer": null, "padding": "same", "dilation_rate": [1, 1], "use_bias": true, "kernel_initializer": {"config": {"scale": 1.0, "mode": "fan_avg", "distribution": "uniform", "seed": null}, "class_name": "VarianceScaling"}, "activity_regularizer": null, "bias_constraint": null, "name": "conv2d_28", "data_format": "channels_last", "kernel_constraint": null, "kernel_size": [3, 3], "strides": [1, 1], "bias_regularizer": null}, "class_name": "Conv2D", "inbound_nodes": [[["batch_normalization_26", 0, 0, {}]]]}, {"name": "batch_normalization_27", "config": {"epsilon": 0.001, "moving_mean_initializer": {"config": {}, "class_name": "Zeros"}, "trainable": true, "beta_constraint": null, "gamma_constraint": null, "gamma_initializer": {"config": {}, "class_name": "Ones"}, "beta_initializer": {"config": {}, "class_name": "Zeros"}, "momentum": 0.8, "moving_variance_initializer": {"config": {}, "class_name": "Ones"}, "beta_regularizer": null, "name": "batch_normalization_27", "axis": -1, "scale": true, "gamma_regularizer": null, "center": true}, "class_name": "BatchNormalization", "inbound_nodes": [[["conv2d_28", 0, 0, {}]]]}, {"name": "add_10", "config": {"trainable": true, "name": "add_10"}, "class_name": "Add", "inbound_nodes": [[["batch_normalization_27", 0, 0, {}], ["add_9", 0, 0, {}]]]}, {"name": "conv2d_29", "config": {"activation": "linear", "trainable": true, "filters": 64, "bias_initializer": {"config": {}, "class_name": "Zeros"}, "kernel_regularizer": null, "padding": "same", "dilation_rate": [1, 1], "use_bias": true, "kernel_initializer": {"config": {"scale": 1.0, "mode": "fan_avg", "distribution": "uniform", "seed": null}, "class_name": "VarianceScaling"}, "activity_regularizer": null, "bias_constraint": null, "name": "conv2d_29", "data_format": "channels_last", "kernel_constraint": null, "kernel_size": [3, 3], "strides": [1, 1], "bias_regularizer": null}, "class_name": "Conv2D", "inbound_nodes": [[["add_10", 0, 0, {}]]]}, {"name": "activation_11", "config": {"trainable": true, "name": "activation_11", "activation": "relu"}, "class_name": "Activation", "inbound_nodes": [[["conv2d_29", 0, 0, {}]]]}, {"name": "batch_normalization_28", "config": {"epsilon": 0.001, "moving_mean_initializer": {"config": {}, "class_name": "Zeros"}, "trainable": true, "beta_constraint": null, "gamma_constraint": null, "gamma_initializer": {"config": {}, "class_name": "Ones"}, "beta_initializer": {"config": {}, "class_name": "Zeros"}, "momentum": 0.8, "moving_variance_initializer": {"config": {}, "class_name": "Ones"}, "beta_regularizer": null, "name": "batch_normalization_28", "axis": -1, "scale": true, "gamma_regularizer": null, "center": true}, "class_name": "BatchNormalization", "inbound_nodes": [[["activation_11", 0, 0, {}]]]}, {"name": "conv2d_30", "config": {"activation": "linear", "trainable": true, "filters": 64, "bias_initializer": {"config": {}, "class_name": "Zeros"}, "kernel_regularizer": null, "padding": "same", "dilation_rate": [1, 1], "use_bias": true, "kernel_initializer": {"config": {"scale": 1.0, "mode": "fan_avg", "distribution": "uniform", "seed": null}, "class_name": "VarianceScaling"}, "activity_regularizer": null, "bias_constraint": null, "name": "conv2d_30", "data_format": "channels_last", "kernel_constraint": null, "kernel_size": [3, 3], "strides": [1, 1], "bias_regularizer": null}, "class_name": "Conv2D", "inbound_nodes": [[["batch_normalization_28", 0, 0, {}]]]}, {"name": "batch_normalization_29", "config": {"epsilon": 0.001, "moving_mean_initializer": {"config": {}, "class_name": "Zeros"}, "trainable": true, "beta_constraint": null, "gamma_constraint": null, "gamma_initializer": {"config": {}, "class_name": "Ones"}, "beta_initializer": {"config": {}, "class_name": "Zeros"}, "momentum": 0.8, "moving_variance_initializer": {"config": {}, "class_name": "Ones"}, "beta_regularizer": null, "name": "batch_normalization_29", "axis": -1, "scale": true, "gamma_regularizer": null, "center": true}, "class_name": "BatchNormalization", "inbound_nodes": [[["conv2d_30", 0, 0, {}]]]}, {"name": "add_11", "config": {"trainable": true, "name": "add_11"}, "class_name": "Add", "inbound_nodes": [[["batch_normalization_29", 0, 0, {}], ["add_10", 0, 0, {}]]]}, {"name": "conv2d_31", "config": {"activation": "linear", "trainable": true, "filters": 64, "bias_initializer": {"config": {}, "class_name": "Zeros"}, "kernel_regularizer": null, "padding": "same", "dilation_rate": [1, 1], "use_bias": true, "kernel_initializer": {"config": {"scale": 1.0, "mode": "fan_avg", "distribution": "uniform", "seed": null}, "class_name": "VarianceScaling"}, "activity_regularizer": null, "bias_constraint": null, "name": "conv2d_31", "data_format": "channels_last", "kernel_constraint": null, "kernel_size": [3, 3], "strides": [1, 1], "bias_regularizer": null}, "class_name": "Conv2D", "inbound_nodes": [[["add_11", 0, 0, {}]]]}, {"name": "activation_12", "config": {"trainable": true, "name": "activation_12", "activation": "relu"}, "class_name": "Activation", "inbound_nodes": [[["conv2d_31", 0, 0, {}]]]}, {"name": "batch_normalization_30", "config": {"epsilon": 0.001, "moving_mean_initializer": {"config": {}, "class_name": "Zeros"}, "trainable": true, "beta_constraint": null, "gamma_constraint": null, "gamma_initializer": {"config": {}, "class_name": "Ones"}, "beta_initializer": {"config": {}, "class_name": "Zeros"}, "momentum": 0.8, "moving_variance_initializer": {"config": {}, "class_name": "Ones"}, "beta_regularizer": null, "name": "batch_normalization_30", "axis": -1, "scale": true, "gamma_regularizer": null, "center": true}, "class_name": "BatchNormalization", "inbound_nodes": [[["activation_12", 0, 0, {}]]]}, {"name": "conv2d_32", "config": {"activation": "linear", "trainable": true, "filters": 64, "bias_initializer": {"config": {}, "class_name": "Zeros"}, "kernel_regularizer": null, "padding": "same", "dilation_rate": [1, 1], "use_bias": true, "kernel_initializer": {"config": {"scale": 1.0, "mode": "fan_avg", "distribution": "uniform", "seed": null}, "class_name": "VarianceScaling"}, "activity_regularizer": null, "bias_constraint": null, "name": "conv2d_32", "data_format": "channels_last", "kernel_constraint": null, "kernel_size": [3, 3], "strides": [1, 1], "bias_regularizer": null}, "class_name": "Conv2D", "inbound_nodes": [[["batch_normalization_30", 0, 0, {}]]]}, {"name": "batch_normalization_31", "config": {"epsilon": 0.001, "moving_mean_initializer": {"config": {}, "class_name": "Zeros"}, "trainable": true, "beta_constraint": null, "gamma_constraint": null, "gamma_initializer": {"config": {}, "class_name": "Ones"}, "beta_initializer": {"config": {}, "class_name": "Zeros"}, "momentum": 0.8, "moving_variance_initializer": {"config": {}, "class_name": "Ones"}, "beta_regularizer": null, "name": "batch_normalization_31", "axis": -1, "scale": true, "gamma_regularizer": null, "center": true}, "class_name": "BatchNormalization", "inbound_nodes": [[["conv2d_32", 0, 0, {}]]]}, {"name": "add_12", "config": {"trainable": true, "name": "add_12"}, "class_name": "Add", "inbound_nodes": [[["batch_normalization_31", 0, 0, {}], ["add_11", 0, 0, {}]]]}, {"name": "conv2d_33", "config": {"activation": "linear", "trainable": true, "filters": 64, "bias_initializer": {"config": {}, "class_name": "Zeros"}, "kernel_regularizer": null, "padding": "same", "dilation_rate": [1, 1], "use_bias": true, "kernel_initializer": {"config": {"scale": 1.0, "mode": "fan_avg", "distribution": "uniform", "seed": null}, "class_name": "VarianceScaling"}, "activity_regularizer": null, "bias_constraint": null, "name": "conv2d_33", "data_format": "channels_last", "kernel_constraint": null, "kernel_size": [3, 3], "strides": [1, 1], "bias_regularizer": null}, "class_name": "Conv2D", "inbound_nodes": [[["add_12", 0, 0, {}]]]}, {"name": "activation_13", "config": {"trainable": true, "name": "activation_13", "activation": "relu"}, "class_name": "Activation", "inbound_nodes": [[["conv2d_33", 0, 0, {}]]]}, {"name": "batch_normalization_32", "config": {"epsilon": 0.001, "moving_mean_initializer": {"config": {}, "class_name": "Zeros"}, "trainable": true, "beta_constraint": null, "gamma_constraint": null, "gamma_initializer": {"config": {}, "class_name": "Ones"}, "beta_initializer": {"config": {}, "class_name": "Zeros"}, "momentum": 0.8, "moving_variance_initializer": {"config": {}, "class_name": "Ones"}, "beta_regularizer": null, "name": "batch_normalization_32", "axis": -1, "scale": true, "gamma_regularizer": null, "center": true}, "class_name": "BatchNormalization", "inbound_nodes": [[["activation_13", 0, 0, {}]]]}, {"name": "conv2d_34", "config": {"activation": "linear", "trainable": true, "filters": 64, "bias_initializer": {"config": {}, "class_name": "Zeros"}, "kernel_regularizer": null, "padding": "same", "dilation_rate": [1, 1], "use_bias": true, "kernel_initializer": {"config": {"scale": 1.0, "mode": "fan_avg", "distribution": "uniform", "seed": null}, "class_name": "VarianceScaling"}, "activity_regularizer": null, "bias_constraint": null, "name": "conv2d_34", "data_format": "channels_last", "kernel_constraint": null, "kernel_size": [3, 3], "strides": [1, 1], "bias_regularizer": null}, "class_name": "Conv2D", "inbound_nodes": [[["batch_normalization_32", 0, 0, {}]]]}, {"name": "batch_normalization_33", "config": {"epsilon": 0.001, "moving_mean_initializer": {"config": {}, "class_name": "Zeros"}, "trainable": true, "beta_constraint": null, "gamma_constraint": null, "gamma_initializer": {"config": {}, "class_name": "Ones"}, "beta_initializer": {"config": {}, "class_name": "Zeros"}, "momentum": 0.8, "moving_variance_initializer": {"config": {}, "class_name": "Ones"}, "beta_regularizer": null, "name": "batch_normalization_33", "axis": -1, "scale": true, "gamma_regularizer": null, "center": true}, "class_name": "BatchNormalization", "inbound_nodes": [[["conv2d_34", 0, 0, {}]]]}, {"name": "add_13", "config": {"trainable": true, "name": "add_13"}, "class_name": "Add", "inbound_nodes": [[["batch_normalization_33", 0, 0, {}], ["add_12", 0, 0, {}]]]}, {"name": "conv2d_35", "config": {"activation": "linear", "trainable": true, "filters": 64, "bias_initializer": {"config": {}, "class_name": "Zeros"}, "kernel_regularizer": null, "padding": "same", "dilation_rate": [1, 1], "use_bias": true, "kernel_initializer": {"config": {"scale": 1.0, "mode": "fan_avg", "distribution": "uniform", "seed": null}, "class_name": "VarianceScaling"}, "activity_regularizer": null, "bias_constraint": null, "name": "conv2d_35", "data_format": "channels_last", "kernel_constraint": null, "kernel_size": [3, 3], "strides": [1, 1], "bias_regularizer": null}, "class_name": "Conv2D", "inbound_nodes": [[["add_13", 0, 0, {}]]]}, {"name": "activation_14", "config": {"trainable": true, "name": "activation_14", "activation": "relu"}, "class_name": "Activation", "inbound_nodes": [[["conv2d_35", 0, 0, {}]]]}, {"name": "batch_normalization_34", "config": {"epsilon": 0.001, "moving_mean_initializer": {"config": {}, "class_name": "Zeros"}, "trainable": true, "beta_constraint": null, "gamma_constraint": null, "gamma_initializer": {"config": {}, "class_name": "Ones"}, "beta_initializer": {"config": {}, "class_name": "Zeros"}, "momentum": 0.8, "moving_variance_initializer": {"config": {}, "class_name": "Ones"}, "beta_regularizer": null, "name": "batch_normalization_34", "axis": -1, "scale": true, "gamma_regularizer": null, "center": true}, "class_name": "BatchNormalization", "inbound_nodes": [[["activation_14", 0, 0, {}]]]}, {"name": "conv2d_36", "config": {"activation": "linear", "trainable": true, "filters": 64, "bias_initializer": {"config": {}, "class_name": "Zeros"}, "kernel_regularizer": null, "padding": "same", "dilation_rate": [1, 1], "use_bias": true, "kernel_initializer": {"config": {"scale": 1.0, "mode": "fan_avg", "distribution": "uniform", "seed": null}, "class_name": "VarianceScaling"}, "activity_regularizer": null, "bias_constraint": null, "name": "conv2d_36", "data_format": "channels_last", "kernel_constraint": null, "kernel_size": [3, 3], "strides": [1, 1], "bias_regularizer": null}, "class_name": "Conv2D", "inbound_nodes": [[["batch_normalization_34", 0, 0, {}]]]}, {"name": "batch_normalization_35", "config": {"epsilon": 0.001, "moving_mean_initializer": {"config": {}, "class_name": "Zeros"}, "trainable": true, "beta_constraint": null, "gamma_constraint": null, "gamma_initializer": {"config": {}, "class_name": "Ones"}, "beta_initializer": {"config": {}, "class_name": "Zeros"}, "momentum": 0.8, "moving_variance_initializer": {"config": {}, "class_name": "Ones"}, "beta_regularizer": null, "name": "batch_normalization_35", "axis": -1, "scale": true, "gamma_regularizer": null, "center": true}, "class_name": "BatchNormalization", "inbound_nodes": [[["conv2d_36", 0, 0, {}]]]}, {"name": "add_14", "config": {"trainable": true, "name": "add_14"}, "class_name": "Add", "inbound_nodes": [[["batch_normalization_35", 0, 0, {}], ["add_13", 0, 0, {}]]]}, {"name": "conv2d_37", "config": {"activation": "linear", "trainable": true, "filters": 64, "bias_initializer": {"config": {}, "class_name": "Zeros"}, "kernel_regularizer": null, "padding": "same", "dilation_rate": [1, 1], "use_bias": true, "kernel_initializer": {"config": {"scale": 1.0, "mode": "fan_avg", "distribution": "uniform", "seed": null}, "class_name": "VarianceScaling"}, "activity_regularizer": null, "bias_constraint": null, "name": "conv2d_37", "data_format": "channels_last", "kernel_constraint": null, "kernel_size": [3, 3], "strides": [1, 1], "bias_regularizer": null}, "class_name": "Conv2D", "inbound_nodes": [[["add_14", 0, 0, {}]]]}, {"name": "activation_15", "config": {"trainable": true, "name": "activation_15", "activation": "relu"}, "class_name": "Activation", "inbound_nodes": [[["conv2d_37", 0, 0, {}]]]}, {"name": "batch_normalization_36", "config": {"epsilon": 0.001, "moving_mean_initializer": {"config": {}, "class_name": "Zeros"}, "trainable": true, "beta_constraint": null, "gamma_constraint": null, "gamma_initializer": {"config": {}, "class_name": "Ones"}, "beta_initializer": {"config": {}, "class_name": "Zeros"}, "momentum": 0.8, "moving_variance_initializer": {"config": {}, "class_name": "Ones"}, "beta_regularizer": null, "name": "batch_normalization_36", "axis": -1, "scale": true, "gamma_regularizer": null, "center": true}, "class_name": "BatchNormalization", "inbound_nodes": [[["activation_15", 0, 0, {}]]]}, {"name": "conv2d_38", "config": {"activation": "linear", "trainable": true, "filters": 64, "bias_initializer": {"config": {}, "class_name": "Zeros"}, "kernel_regularizer": null, "padding": "same", "dilation_rate": [1, 1], "use_bias": true, "kernel_initializer": {"config": {"scale": 1.0, "mode": "fan_avg", "distribution": "uniform", "seed": null}, "class_name": "VarianceScaling"}, "activity_regularizer": null, "bias_constraint": null, "name": "conv2d_38", "data_format": "channels_last", "kernel_constraint": null, "kernel_size": [3, 3], "strides": [1, 1], "bias_regularizer": null}, "class_name": "Conv2D", "inbound_nodes": [[["batch_normalization_36", 0, 0, {}]]]}, {"name": "batch_normalization_37", "config": {"epsilon": 0.001, "moving_mean_initializer": {"config": {}, "class_name": "Zeros"}, "trainable": true, "beta_constraint": null, "gamma_constraint": null, "gamma_initializer": {"config": {}, "class_name": "Ones"}, "beta_initializer": {"config": {}, "class_name": "Zeros"}, "momentum": 0.8, "moving_variance_initializer": {"config": {}, "class_name": "Ones"}, "beta_regularizer": null, "name": "batch_normalization_37", "axis": -1, "scale": true, "gamma_regularizer": null, "center": true}, "class_name": "BatchNormalization", "inbound_nodes": [[["conv2d_38", 0, 0, {}]]]}, {"name": "add_15", "config": {"trainable": true, "name": "add_15"}, "class_name": "Add", "inbound_nodes": [[["batch_normalization_37", 0, 0, {}], ["add_14", 0, 0, {}]]]}, {"name": "create_gen_conv2d_2", "config": {"activation": "linear", "trainable": true, "filters": 64, "bias_initializer": {"config": {}, "class_name": "Zeros"}, "kernel_regularizer": null, "padding": "same", "dilation_rate": [1, 1], "use_bias": true, "kernel_initializer": {"config": {"scale": 1.0, "mode": "fan_avg", "distribution": "uniform", "seed": null}, "class_name": "VarianceScaling"}, "activity_regularizer": null, "bias_constraint": null, "name": "create_gen_conv2d_2", "data_format": "channels_last", "kernel_constraint": null, "kernel_size": [3, 3], "strides": [1, 1], "bias_regularizer": null}, "class_name": "Conv2D", "inbound_nodes": [[["add_15", 0, 0, {}]]]}, {"name": "create_gen_batch_norm_1", "config": {"epsilon": 0.001, "moving_mean_initializer": {"config": {}, "class_name": "Zeros"}, "trainable": true, "beta_constraint": null, "gamma_constraint": null, "gamma_initializer": {"config": {}, "class_name": "Ones"}, "beta_initializer": {"config": {}, "class_name": "Zeros"}, "momentum": 0.8, "moving_variance_initializer": {"config": {}, "class_name": "Ones"}, "beta_regularizer": null, "name": "create_gen_batch_norm_1", "axis": -1, "scale": true, "gamma_regularizer": null, "center": true}, "class_name": "BatchNormalization", "inbound_nodes": [[["create_gen_conv2d_2", 0, 0, {}]]]}, {"name": "create_gen_add", "config": {"trainable": true, "name": "create_gen_add"}, "class_name": "Add", "inbound_nodes": [[["create_gen_batch_norm_1", 0, 0, {}], ["create_gen_relu_1", 0, 0, {}]]]}, {"name": "test1", "config": {"activation": "linear", "trainable": true, "filters": 64, "bias_initializer": {"config": {}, "class_name": "Zeros"}, "kernel_regularizer": null, "padding": "same", "dilation_rate": [1, 1], "use_bias": true, "kernel_initializer": {"config": {"scale": 1.0, "mode": "fan_avg", "distribution": "uniform", "seed": null}, "class_name": "VarianceScaling"}, "activity_regularizer": null, "bias_constraint": null, "name": "test1", "data_format": "channels_last", "kernel_constraint": null, "kernel_size": [3, 3], "strides": [2, 2], "bias_regularizer": null}, "class_name": "Conv2D", "inbound_nodes": [[["create_gen_add", 0, 0, {}]]]}, {"name": "test2", "config": {"trainable": true, "name": "test2", "activation": "relu"}, "class_name": "Activation", "inbound_nodes": [[["test1", 0, 0, {}]]]}, {"name": "test3", "config": {"activation": "linear", "trainable": true, "filters": 64, "bias_initializer": {"config": {}, "class_name": "Zeros"}, "kernel_regularizer": null, "padding": "same", "dilation_rate": [1, 1], "use_bias": true, "kernel_initializer": {"config": {"scale": 1.0, "mode": "fan_avg", "distribution": "uniform", "seed": null}, "class_name": "VarianceScaling"}, "activity_regularizer": null, "bias_constraint": null, "name": "test3", "data_format": "channels_last", "kernel_constraint": null, "kernel_size": [3, 3], "strides": [2, 2], "bias_regularizer": null}, "class_name": "Conv2D", "inbound_nodes": [[["test2", 0, 0, {}]]]}, {"name": "test4", "config": {"trainable": true, "name": "test4", "activation": "relu"}, "class_name": "Activation", "inbound_nodes": [[["test3", 0, 0, {}]]]}, {"name": "up_sampling2d_1", "config": {"data_format": "channels_last", "trainable": true, "name": "up_sampling2d_1", "size": [2, 2], "interpolation": "nearest"}, "class_name": "UpSampling2D", "inbound_nodes": [[["test4", 0, 0, {}]]]}, {"name": "conv2d_39", "config": {"activation": "linear", "trainable": true, "filters": 256, "bias_initializer": {"config": {}, "class_name": "Zeros"}, "kernel_regularizer": null, "padding": "same", "dilation_rate": [1, 1], "use_bias": true, "kernel_initializer": {"config": {"scale": 1.0, "mode": "fan_avg", "distribution": "uniform", "seed": null}, "class_name": "VarianceScaling"}, "activity_regularizer": null, "bias_constraint": null, "name": "conv2d_39", "data_format": "channels_last", "kernel_constraint": null, "kernel_size": [3, 3], "strides": [1, 1], "bias_regularizer": null}, "class_name": "Conv2D", "inbound_nodes": [[["up_sampling2d_1", 0, 0, {}]]]}, {"name": "activation_16", "config": {"trainable": true, "name": "activation_16", "activation": "relu"}, "class_name": "Activation", "inbound_nodes": [[["conv2d_39", 0, 0, {}]]]}, {"name": "up_sampling2d_2", "config": {"data_format": "channels_last", "trainable": true, "name": "up_sampling2d_2", "size": [2, 2], "interpolation": "nearest"}, "class_name": "UpSampling2D", "inbound_nodes": [[["activation_16", 0, 0, {}]]]}, {"name": "conv2d_40", "config": {"activation": "linear", "trainable": true, "filters": 256, "bias_initializer": {"config": {}, "class_name": "Zeros"}, "kernel_regularizer": null, "padding": "same", "dilation_rate": [1, 1], "use_bias": true, "kernel_initializer": {"config": {"scale": 1.0, "mode": "fan_avg", "distribution": "uniform", "seed": null}, "class_name": "VarianceScaling"}, "activity_regularizer": null, "bias_constraint": null, "name": "conv2d_40", "data_format": "channels_last", "kernel_constraint": null, "kernel_size": [3, 3], "strides": [1, 1], "bias_regularizer": null}, "class_name": "Conv2D", "inbound_nodes": [[["up_sampling2d_2", 0, 0, {}]]]}, {"name": "activation_17", "config": {"trainable": true, "name": "activation_17", "activation": "relu"}, "class_name": "Activation", "inbound_nodes": [[["conv2d_40", 0, 0, {}]]]}, {"name": "create_gen_generated_img", "config": {"activation": "tanh", "trainable": true, "filters": 3, "bias_initializer": {"config": {}, "class_name": "Zeros"}, "kernel_regularizer": null, "padding": "same", "dilation_rate": [1, 1], "use_bias": true, "kernel_initializer": {"config": {"scale": 1.0, "mode": "fan_avg", "distribution": "uniform", "seed": null}, "class_name": "VarianceScaling"}, "activity_regularizer": null, "bias_constraint": null, "name": "create_gen_generated_img", "data_format": "channels_last", "kernel_constraint": null, "kernel_size": [9, 9], "strides": [1, 1], "bias_regularizer": null}, "class_name": "Conv2D", "inbound_nodes": [[["activation_17", 0, 0, {}]]]}], "output_layers": [["create_gen_generated_img", 0, 0]], "input_layers": [["create_gen_input", 0, 0]]}, "class_name": "Model", "keras_version": "2.2.4"}